model_weights/baseline/bounding_boxes_baseline.pth (torch, 513688 bytes, 10 tensors)

features.0.weight f4 [32, 3, 3, 3]
000000 6e 27 24 3d 60 e8 de 3d 1b 80 9e bc 2c b3 6a ba
       0.040076666 0.10884166 -0.019348195 -0.00089530903
000010 c2 2e a8 3d c9 1d 4b bc fb 92 b8 3c 5f 1a 42 be
       0.08212043 -0.012397238 0.022531023 -0.18955372
000020 d8 40 2c be b1 ad 15 be 58 bb 6a bd 81 3c 16 be
       -0.16821611 -0.1461704 -0.05730757 -0.14671518
000030 3e f2 2a 3d 8d 47 39 3e 61 ee 43 3e a0 c0 f3 3d
       0.041734926 0.180937 0.19133903 0.11901975
000040 20 f4 49 3e 4a a0 35 3d be f8 62 be 62 0d f8 3d
       0.19722033 0.044342317 -0.221652 0.121119276
000050 b4 5f 4d bd ba 83 07 3e b3 76 f7 3c fa 43 bd bb
       -0.050140098 0.13233843 0.030207967 -0.0057759257
000060 ad 86 4d 3d 8d 6d 46 be 14 00 04 be 64 e3 17 3e
       0.050177265 -0.19377728 -0.12890655 0.14832836
000070 36 ef 03 be da 87 e6 3d a0 37 42 3e d1 62 6b 3d
       -0.1288422 0.112563804 0.18966532 0.057467286
000080 30 44 25 be cc d1 8e 3d 83 9b 2e bd 6f 26 02 bd
       -0.16139293 0.06973609 -0.042628776 -0.031774934
000090 0d 7f f7 3d e7 13 09 be 21 66 96 bd 74 62 78 3e
       0.1208478 -0.13386498 -0.07343698 0.24256307
0000a0 be 71 8a 3d f7 db ac 3d 44 9f b1 3d 7b db 24 be
       0.06759976 0.084403925 0.08672956 -0.1609935
0000b0 ba 8f 49 3e 32 3d 75 be 0a 8d 9d be be bd 7c be
       0.19683734 -0.23949125 -0.30771667 -0.24681756
0000c0 85 17 0b 3c 1f 72 c1 be 08 d1 b8 be 11 37 6d be
       0.008489494 -0.3778238 -0.36096978 -0.23165537
0000d0 78 cd bc be e6 fe 06 bf b9 60 88 be 26 b4 85 3a
       -0.3687551 -0.52732694 -0.26636294 0.0010200783
0000e0 17 a7 d9 bd a3 c8 aa 3c 95 e8 9b be 15 57 6f be
       -0.10627573 0.020847624 -0.30450884 -0.23373063
0000f0 15 cc e0 3c 5c 60 99 bc d3 3e 81 be 51 ce 34 be
       0.027441064 -0.018722706 -0.25243244 -0.17656828
000100 90 cb 39 be e3 2f c7 bc 6d fb 64 be 43 74 67 bd
       -0.18144059 -0.024314826 -0.22361536 -0.05650736
000110 e7 d7 f4 bc af 03 c5 bd ad 64 e6 3b 4c 91 4e bc
       -0.029888107 -0.09619843 0.0070310445 -0.012607884
000120 5c 72 e1 3d 64 96 3c 3d de 48 bc bd a9 e5 21 3e
       0.110081404 0.04604186 -0.09193586 0.15810265
000130 30 46 f6 3c 36 59 c1 3d c8 d4 63 3e b6 49 04 3d
       0.030062765 0.09440844 0.22249138 0.03229686
000140 a2 78 43 bd 26 20 8c 3c 74 27 9d bd 70 52 4a be
       -0.047722466 0.017105173 -0.07673541 -0.1975801
000150 54 e3 c7 bd 2f cb c0 bd e1 0f b8 bd 01 68 0c bd
       -0.09760156 -0.09413754 -0.08987404 -0.034278873
000160 d0 dd 11 bd 9c 3f 97 3d 7f 76 01 be be d1 ec bd
       -0.035611928 0.073851794 -0.12642859 -0.11563443
000170 82 3b b6 3d 55 21 35 be 7b 52 96 bd e1 99 41 3e
       0.08898069 -0.17688496 -0.07339951 0.18906356
000180 b4 9b 02 3e a9 b7 3d 3d 4b 36 7a 3d 6d 35 c3 3d
       0.12754709 0.04631773 0.061086934 0.095316745
000190 48 ff 9b 3d f8 a3 cf bd 18 3b 37 bd 8a b5 4d ba
       0.076170504 -0.101386964 -0.04473409 -0.0007847181
0001a0 b9 33 fc 3d b6 b5 00 bd a5 6a 34 be 08 67 38 3d
       0.12314553 -0.031423293 -0.17618807 0.045020133
0001b0 6f 92 4e 3e 5c ea 17 bd f0 7b 3c bd 83 55 e9 3d
       0.20173047 -0.037088737 -0.046016634 0.11393263
0001c0 85 91 6a bd 11 d4 f5 bd 6a ff 1e be b7 74 28 be
       -0.057267684 -0.12003339 -0.1552712 -0.16450773
0001d0 00 0e 48 be e7 d3 75 3e 98 fc 1d 3d 47 2c 8d 3d
       -0.1953659 0.24006616 0.03857097 0.06893211
0001e0 15 c4 52 3d 16 e8 0b 3e dd 8b 69 3d 8c de 42 3d
       0.05145653 0.13662753 0.05701815 0.04757552
0001f0 40 3e 5d 3c 73 f2 55 be 0a 82 3b 3e 49 40 4d 3e
       0.013503611 -0.20893268 0.18311325 0.20044054
000200 24 88 ec bd 67 a8 22 3e c9 fc 35 3c e5 e9 0b be
       -0.11549404 0.15884553 0.011107632 -0.13663442
000210 ae 4a 1d 3e 27 5b e9 bc 72 c7 2b be f9 44 05 bc
       0.1536052 -0.028485848 -0.16775301 -0.00813412
000220 8c 3c 14 3e ff cc 03 3d 5d 4e 46 3e db 80 0b 3e
       0.14476222 0.03217792 0.1936583 0.13623373
000230 d0 3a fc bd 3d 1f dc 3d 77 3d a5 3d 48 c0 eb 3d
       -0.12315905 0.10748146 0.08068364 0.11511284
000240 2c 7f 00 be 81 54 cb bd 59 fc c0 bc 16 77 26 be
       -0.12548512 -0.09928227 -0.023557829 -0.16256365
000250 d6 fc 95 3d 7b 96 87 be ef f5 ab bd 26 a3 90 bd
       0.07323615 -0.26481995 -0.083965175 -0.07062368
000260 64 c4 2e be e0 31 1f be af 11 22 be 13 68 17 3e
       -0.17067105 -0.1554637 -0.15827058 0.14785795
000270 90 07 3a 3e 06 5b bc 3d 58 de bc bd 78 8a 8b 3c
       0.18166947 0.09197049 -0.09222096 0.0170338
000280 dd 0c a5 bd 80 2e 0e 3e e8 63 1f 3d cf 81 75 bd
       -0.08059094 0.13884926 0.038913637 -0.05993825
000290 2f fd 5e 3e 2f d1 0f be 5e e7 0a be 40 78 38 3e
       0.2177627 -0.14044641 -0.13564822 0.18014622
0002a0 1e d3 f7 3c 92 6d d4 bd 6c 72 bd 3d f5 0d 0a 3e
       0.030252036 -0.103724614 0.0925034 0.13481887
0002b0 e1 02 49 3e a5 ad 53 3e f5 42 a5 ba 9d bc b2 3d
       0.19630004 0.20671709 -0.0012608456 0.087273814
0002c0 6b ed 04 be 42 2e 9e 3d 53 ea 08 bd 05 b8 82 3d
       -0.12981193 0.07723667 -0.033426594 0.06382755
0002d0 b4 38 ee bc 20 bb a6 bd d6 bf 42 be f1 da 20 be
       -0.029079773 -0.0814116 -0.19018492 -0.1570852
0002e0 70 a1 57 be 24 bf 60 bd 47 20 10 be b8 09 bd 3d
       -0.21057677 -0.054869786 -0.14074813 0.09230369
0002f0 45 7a cc bd 15 2f cb bd 34 95 85 bd 0e be 74 be
       -0.099842586 -0.099210896 -0.06522599 -0.23900625
000300 9b 08 92 bc b8 37 19 bb e0 27 03 be 09 4e 55 3b
       -0.017826369 -0.0023379158 -0.1280818 0.0032547733
000310 fb 2a fb bc 4c 64 7c 3d 17 93 ad 3d 53 34 f2 bc
       -0.030660143 0.061619088 0.08475321 -0.029565966
000320 22 7f 4d 3d 53 f9 f7 3d 50 b8 6c 3e 4e a4 f7 3d
       0.05017007 0.12108102 0.23117185 0.120918855
000330 56 c3 c2 3d 89 a6 08 bd e6 06 41 3e 0f df 1e be
       0.095099136 -0.033361945 0.18850288 -0.15514778
000340 a2 00 b6 bd 42 77 4f 3d 57 8f bd 3d 53 53 4d 3e
       -0.088868394 0.050650842 0.092558555 0.20051317
000350 b3 16 e3 bd af 62 a2 bc 2a 2a df bd c8 51 e5 3d
       -0.11088314 -0.019822447 -0.10896714 0.11197239
000360 71 67 56 3d bd 9d 3d 3e 5c 60 1e bc 80 f1 cc 3d
       0.052344743 0.18517204 -0.009666529 0.10007
000370 16 0b 69 3e 31 38 8f 3d c1 d4 41 3e a9 2a 1b 3e
       0.22758135 0.069931395 0.18928815 0.15152992
000380 84 43 25 be 16 72 5f be fd d2 f4 bd 7a 7c 45 be
       -0.16139036 -0.21820864 -0.11954305 -0.19285765
000390 7c cb 8c bd f9 32 91 bd 7c 80 29 3d ac ce 0a be
       -0.06874749 -0.070898004 0.041382298 -0.13555402
0003a0 01 63 06 3e c1 eb 4d bd 5c ae 61 bd 2e df 17 3e
       0.13123704 -0.05027366 -0.055097923 0.1483123
0003b0 99 46 49 be 7d ff 8f bd e6 71 82 bd 99 83 e9 3d
       -0.19655837 -0.070311524 -0.06369381 0.114020534
0003c0 8b 01 0b 3e 17 fd 08 3d 2c b4 dc bd 7f 3d 46 bd
       0.13574807 0.03344449 -0.107765526 -0.04839849
0003d0 09 3b a8 3b d1 c1 24 3e 08 92 06 be be fa 38 be
       0.0051339907 0.1608956 -0.13141644 -0.180644
0003e0 29 b3 b4 3d 86 65 a9 3d 15 d0 bf bd bb 1b 1a 3d
       0.088232346 0.08271317 -0.093658604 0.037624102
0003f0 c3 89 38 3d a5 07 ab bd 7d 21 78 3c 90 a9 58 be
       0.045053255 -0.083510675 0.015144703 -0.21158433

features.0.bias f4 [32]
000000 36 86 0a bd 4e e8 5c 3d f4 f8 1e 3e ec c8 48 3e
       -0.0338194 0.05393248 0.15524656 0.19607896
000010 d0 9f 1b be a9 7b 22 bd 2c 98 03 3e 96 b2 f7 bd
       -0.15197682 -0.039668713 0.12851018 -0.120946094
000020 f3 0b e7 bd af b8 0e be 87 21 3f 3e 58 f8 f9 3d
       -0.11281576 -0.13937639 0.18665133 0.12205571
000030 6e 99 35 bb 68 3a 1a be ad fe 2f be b7 75 26 3e
       -0.002770986 -0.15061343 -0.17186995 0.16255842
000040 7c 2e dc 3d c4 e4 98 be 8c 0a 54 be 96 96 61 bc
       0.10751054 -0.29862034 -0.20707148 -0.013768813
000050 9c 33 96 bd a0 a1 8d be 6c a9 4b 3e c0 c2 9f bc
       -0.073340625 -0.27662373 0.19888848 -0.019502044
000060 cc 45 ec bb 97 34 0e be 95 82 90 bd 5f 64 50 bd
       -0.007210469 -0.13887249 -0.070561565 -0.05087697
000070 b7 f7 33 3e 19 84 37 3e 3e 32 d8 bd 74 c8 ea 3d
       0.17574964 0.17921485 -0.10556458 0.11464015

features.3.weight f4 [64, 32, 3, 3]
000000 64 dd c0 3c 09 8d 8c bc a9 46 66 bd 0a 23 24 bc
       0.023543067 -0.017157095 -0.05621973 -0.01001812
000010 2b 44 cb 3c 85 f6 4d ba 48 1c 51 3d d3 bb a6 3c
       0.024812778 -0.00078568637 0.05105236 0.020353233
000020 96 b2 0a 3d 21 0a 23 be fd f8 d7 bd 6f 70 6a bd
       0.03386172 -0.15921833 -0.105455376 -0.05723613
000030 d7 9d a0 bd c7 c6 a3 bd f8 a9 bc bd 2a 21 89 bd
       -0.078426056 -0.07996898 -0.092121065 -0.06695779
000040 85 c1 00 be cc 61 f8 bd e6 f0 0c be fd 31 9a bd
       -0.12573822 -0.12128028 -0.1376377 -0.07529066
000050 aa 47 b4 bd 5b fa d8 bd 65 f2 be bd 57 62 39 3d
       -0.08802731 -0.105946265 -0.09323577 0.0452598
000060 a1 48 6a bd 7b 61 2d bd 6c 72 a5 3c 3a 3d a3 bd
       -0.05719817 -0.042329293 0.020196162 -0.079706624
000070 7b 6c 2d bc fd 3e e3 bc 76 26 ad 3c 93 45 45 bd
       -0.010584946 -0.027739996 0.021136504 -0.048162054
000080 4b 15 33 bd aa 3e 5d bc e1 7c 28 3c 0c b0 43 bd
       -0.04372148 -0.01350371 0.01028368 -0.047775313
000090 78 51 c5 bb 8d 13 f8 bc 42 6a 48 bc 54 c9 48 bc
       -0.0060216747 -0.03028276 -0.012232365 -0.012255032
0000a0 b2 ac 64 bd ed 0d 22 bd 8f 67 88 bc 0c 6a 01 bd
       -0.055828758 -0.039564062 -0.016650943 -0.031595275
0000b0 34 95 ef bd 1e a9 f0 bc 86 9a f4 bc 3e a3 10 bd
       -0.1169838 -0.029377516 -0.029858839 -0.03531193
0000c0 5b 22 34 bc 60 3a f8 bb 7e af 80 3d b4 03 8c 3d
       -0.010994519 -0.007575318 0.062834725 0.06836644
0000d0 6c c8 0d bc 6f 53 f0 3c 49 06 44 bc 13 d8 22 3d
       -0.008653741 0.02933666 -0.011964389 0.039756846
0000e0 2b 90 e5 3c 2a 77 9a bc 7e dd 39 bd 4e e9 47 3d
       0.028022846 -0.01885565 -0.045377247 0.04880648
0000f0 94 3f 25 bd e2 01 05 bd 7b 84 3d 3d 5d e7 68 bd
       -0.040343836 -0.0324725 0.04626892 -0.05686127
000100 9d 49 34 3d ad 8e 0a bd e8 a6 1f 3d eb 10 05 3d
       0.044015516 -0.033827472 0.038977534 0.032486837
000110 ac 42 24 3c c6 f2 34 3d cc 8e ba 3c e7 6e 41 3c
       0.010025661 0.04417684 0.022773169 0.011806226
000120 29 61 84 bc 50 ff 0b bd b6 d3 55 3d fc 2c d7 bc
       -0.01615961 -0.03417903 0.052203856 -0.026266567
000130 50 53 e4 bc 94 22 85 bd 85 65 19 3d cf 9d 23 3d
       -0.027871758 -0.06500736 0.037450332 0.03994542
000140 8d 64 0f bd 60 1a 89 bd f7 79 a8 bd 56 19 77 bc
       -0.035008002 -0.06694484 -0.08226388 -0.015081724
000150 2c fb 3a bc 52 0f 8a bd f3 da f5 3b e7 ff 0c bd
       -0.011412423 -0.06741203 0.0075029074 -0.034423735
000160 ec c4 fa bd 31 c3 89 bd 2d 8c 8d bd b9 a3 1b 3c
       -0.12244591 -0.06726683 -0.06911502 0.009499484
000170 6c d4 1f bd 7e a4 b0 bc 04 c1 4d bd 40 2f 75 bd
       -0.03902094 -0.021562811 -0.050232902 -0.059859514
000180 0b 13 b3 bd 4e 59 e7 bb 4b ca 0a 3d 32 e4 35 bc
       -0.087438665 -0.0070602065 0.033884328 -0.011101769
000190 b9 df 2f bc df f9 3b bd bf bc 0e bd 11 02 51 3c
       -0.010734492 -0.045892593 -0.03484797 0.01275684
0001a0 0a f7 6a bd fd c2 8f bd 7f 53 a2 bb 70 20 87 bd
       -0.0573645 -0.07019613 -0.004953801 -0.06597984
0001b0 d2 54 33 3d 94 29 db 3c c1 33 45 bd 44 f3 59 bd
       0.043782063 0.026753224 -0.04814506 -0.05321051
0001c0 f8 51 45 bd 07 90 82 bd 4f 7a 9f 3c 8f 28 0a 3d
       -0.048173875 -0.06375127 0.019467501 0.033730086
0001d0 57 18 b4 3c 74 34 b2 3c 39 1b 2c 3d b0 14 d6 bc
       0.021984262 0.021753527 0.04201815 -0.026132911
0001e0 48 5c db bc a9 0b 33 bd ce 67 58 3d b7 ca 80 bc
       -0.026777402 -0.043712292 0.05283337 -0.015721662
0001f0 40 b5 56 3d 17 63 b2 3b 21 50 cb 3b 77 92 60 bd
       0.052418947 0.0054439413 0.0062046205 -0.05482718
000200 ed 65 2c bd 9b 1d 8d bc 79 86 36 bd 48 0f c2 bc
       -0.04208939 -0.017226031 -0.044561837 -0.023688927
000210 1f 32 f4 ba a7 8a e4 bb 6a 93 23 bd af b7 83 ba
       -0.001863066 -0.0069745365 -0.039935507 -0.0010049249
000220 41 ca 9e 3b 2c 00 68 3c d9 14 63 bd 84 1d f0 3b
       0.004845888 0.014160197 -0.055439804 0.0073277373
000230 4c 03 a4 3a 5c b4 44 bc 35 d0 bb 3c 17 0d d0 3c
       0.001251319 -0.012005892 0.02292643 0.025396867
000240 15 a3 ec bc 75 09 06 bc dc f8 42 bd df 88 0c bd
       -0.028886357 -0.008180966 -0.047600612 -0.034310218
000250 00 0d 33 3d 6b d0 93 3b 2e 6e da 3c 14 39 14 3c
       0.04371357 0.0045109293 0.026663866 0.009046812
000260 8d 05 22 3c 4c 64 21 3d b7 a2 d8 3b d3 51 4e 3b
       0.009889019 0.03940229 0.006611194 0.0031481877
000270 88 de bb 3b b1 67 57 3c e9 c6 b8 bc 53 bc 3a bd
       0.005733315 0.013147281 -0.022555785 -0.045589756
000280 b7 8c 81 bd 1e d9 fe 3a 47 7b 83 3d fd ff 2b bd
       -0.06325667 0.0019443368 0.06419998 -0.041992176
000290 45 4e 68 bc 20 f4 cb 3c 07 f8 ab bc 13 0b 1b 3c
       -0.014178817 0.024896681 -0.020992292 0.0094630895
0002a0 c4 d8 87 3d 36 11 9b bc 26 f9 4d 3d 95 1c fc bd
       0.06633142 -0.018929105 0.050286435 -0.12310139
0002b0 46 a2 5e bd 79 3c 8e bd 2a 3a f0 bd 74 82 6a bd
       -0.054353975 -0.06945128 -0.11729844 -0.057253316
0002c0 b6 10 22 bd 84 27 81 bd ae 7a c4 bc 52 99 a7 bd
       -0.039566718 -0.06306365 -0.02398428 -0.081835404
0002d0 fd 4a 1c 3c d2 d4 19 bd c3 93 27 3c 8b 4a a6 b8
       0.009539363 -0.037556477 0.0102281 -7.9293815e-05
0002e0 d7 5c 23 3d 4c 35 47 bd 9d 84 d9 bc 57 09 26 39
       0.03988346 -0.048634812 -0.026552493 0.00015834473
0002f0 bd b9 24 bc b3 89 d9 3b 84 c8 9f 3c 33 f7 eb 3c
       -0.010054049 0.0066387295 0.019504793 0.028804397
000300 48 ae 9f 3c c3 09 b3 3c 68 6f 50 3d cc cd c2 bc
       0.019492283 0.02185524 0.050887495 -0.023779772
000310 45 4b 4b 3d ba 86 a1 bc a7 e1 bc bc 96 dd 2a bd
       0.04963233 -0.019717563 -0.023056818 -0.041715227
000320 02 62 f5 3c 77 1d 17 3c 45 16 73 bd 93 24 2e bd
       0.02995396 0.009223334 -0.05934741 -0.04251535
000330 78 f4 b0 bd 43 bc f9 ba 24 24 75 bd 8a a8 b9 be
       -0.08640379 -0.0019053299 -0.05984892 -0.36261398
000340 52 88 a1 be a6 bd 9a be fa 8a ab be 00 1b 70 be
       -0.31549317 -0.30222815 -0.33504468 -0.234478
000350 f3 f9 93 be e4 13 d4 be f3 2a 73 be 75 f6 63 be
       -0.28901634 -0.41421425 -0.23746853 -0.22261985
000360 39 a8 8a 3c 54 aa 2e bd 3f a7 15 bd 42 83 4a bd
       0.016925918 -0.042642906 -0.03653645 -0.049441583
000370 ca 72 c8 3c c6 f7 ef bc e6 12 b8 bd 17 b4 a7 3c
       0.024468798 -0.029292952 -0.089879796 0.020471616
000380 ff 1e c5 bc 71 81 b2 bc b3 81 1c 3d cd cd e1 3c
       -0.024062632 -0.021790238 0.03820963 0.027563954
000390 ee f4 5b b7 14 d9 91 bd a7 21 83 3a e9 3b 55 bc
       -1.3110444e-05 -0.071214825 0.0010004536 -0.013014772
0003a0 14 cc cd bb fe ca ba 3c 94 b2 31 3e 89 7f 78 3d
       -0.0062804315 0.022801872 0.17353278 0.060668502
0003b0 3a f0 38 3e d4 20 65 3e 0a 0c 17 3e 38 57 45 3e
       0.18060389 0.22375804 0.14750686 0.19271553
0003c0 ae ac fe 3d 74 8d 4b 3e 42 ba 1c 3e 10 4b 38 3d
       0.1243528 0.19878179 0.15305427 0.04499346
0003d0 2c ef 2f bd 10 22 c7 3c ab 46 fe bc 59 27 35 bd
       -0.0429527 0.024308234 -0.031039556 -0.044226978
0003e0 e3 a9 8d ba 5f cc 10 bd 5f 44 1d 3d d3 70 00 3d
       -0.0010808076 -0.035351153 0.038395282 0.031357598
0003f0 17 27 5a bd 06 15 7e bd 15 e7 c8 3c bf a5 01 bd
       -0.053259935 -0.06203177 0.024524251 -0.03165221

features.3.bias f4 [64]
000000 66 c9 fd bb f9 ea 44 3d ca fc c5 bd 3b 42 bc 3b
       -0.007744956 0.04807565 -0.09667356 0.0057452
000010 0c 2e 02 3b f8 f4 bf bc 7c 2a 19 3c 86 c6 17 bd
       0.0019863872 -0.02343224 0.009348508 -0.03705456
000020 98 b0 34 bc 46 7b 05 bd 29 34 24 bd 26 e7 70 bd
       -0.011028431 -0.032588266 -0.040088806 -0.05881419
000030 35 d7 75 bc 1e 8b 8d 3c 4d f7 fe bc b6 b4 ad bd
       -0.015004923 0.01727825 -0.031123782 -0.084817335
000040 03 08 6f bd c8 3a 19 3d 6b b0 52 bc f6 ea 49 3d
       -0.05835725 0.037409574 -0.012859444 0.04929634
000050 0e cf b6 bc 81 d4 ff 3c c1 13 80 bc 10 69 44 bb
       -0.022315528 0.03122926 -0.01563442 -0.0029969849
000060 57 60 26 bd f5 13 62 bd 24 5b 94 bd 88 a5 7f 3d
       -0.04061922 -0.055194814 -0.07243946 0.062413722
000070 ca 85 81 bd 76 a5 89 3c 59 f0 9c 3d 35 27 26 3d
       -0.06324346 0.01680253 0.0766303 0.040564734
000080 4d 13 2f 3c b8 a5 e4 bd 79 12 da bc 6d a9 19 3d
       0.010685754 -0.11164421 -0.026620137 0.037515093
000090 de 7e 6d ba ea 9c 9f 3d f6 2b c9 3d 87 08 bf bc
       -0.0009059737 0.07793601 0.09822838 -0.023319496
0000a0 62 90 a8 3d 7f 2a b6 3c 64 7e 13 be 37 15 60 bd
       0.08230664 0.02223706 -0.14403683 -0.054707732
0000b0 49 68 33 bd af 53 87 bc 30 e9 02 3c db cc a0 bd
       -0.043800626 -0.016519396 0.007990167 -0.07851573
0000c0 89 32 20 bc 6e 9c 42 bd f5 8c 3b bc 02 fa af 3d
       -0.0097776735 -0.047512464 -0.011447181 0.08592607
0000d0 50 f4 12 be e8 81 5a bd 93 59 cf bd 33 96 10 3b
       -0.1435101 -0.053346545 -0.10124507 0.0022062182
0000e0 29 78 09 b9 33 42 44 3b c4 0a 82 bd 5b f5 9d 3d
       -0.00013110101 0.0029946684 -0.0634971 0.077128135
0000f0 5f d4 15 bd ef 4f cd 3d 1b c4 91 3d c6 40 76 bd
       -0.036579486 0.10025012 0.07117482 -0.060120367

features.6.weight f4 [128, 64, 3, 3]
000000 12 9b 8c be f9 5b f4 bd 20 b9 90 3d 05 56 fb bd
       -0.2746206 -0.11931605 0.0706656 -0.12272266
000010 b7 f0 45 be 0d 78 b1 3d 14 f0 eb bd e7 69 8a bd
       -0.19330107 0.08665476 -0.11520401 -0.067584805
000020 f8 52 93 3d ad 9a ac be ef e5 c1 bc dc 91 64 3e
       0.071935594 -0.33711758 -0.023669211 0.22321266
000030 a9 d0 20 bf da 3b 90 be 44 b1 2d 3e d2 ca cf be
       -0.6281839 -0.28170663 0.16962153 -0.40584427
000040 74 11 5c be 33 0a 0d 3e f2 e5 d7 3d c7 01 ae 3d
       -0.21491033 0.13773422 0.105419055 0.08496433
000050 36 49 2d 3e c1 39 3c 3d bb 8e a9 bc 73 cd 50 bd
       0.16922459 0.045953516 -0.020697942 -0.05097718
000060 b8 b1 ca bd c8 3c 00 bc 8b 15 88 3c 34 b2 82 be
       -0.098971784 -0.007826991 0.016611835 -0.25526583
000070 c6 f7 7e 3d 30 49 12 3e bd dd 3c be e3 c1 4b bd
       0.062248014 0.14285731 -0.18443961 -0.04974545
000080 ed ae fc 3d e5 cf 72 be dd 32 e9 bd ac 26 05 bd
       0.12338052 -0.23712118 -0.113866545 -0.032507583
000090 30 5c 91 bd 06 de d0 3d 63 ee 9a 3e 9e 90 eb be
       -0.070976615 0.101985976 0.3026 -0.46008772
0000a0 12 26 38 be 2e 89 62 3e 6b 2c 9f be 2b a9 1a be
       -0.17983273 0.22122642 -0.31088576 -0.15103595
0000b0 c2 14 07 3e 01 29 ea be 7b 2e 46 be 61 44 6b be
       0.13191512 -0.45734408 -0.19353668 -0.22975303
0000c0 2a aa 95 be cc 23 ce be 29 c1 89 be 8c df 30 be
       -0.29231387 -0.40261686 -0.26905182 -0.17272776
0000d0 97 59 41 be 3a 3f 85 be 1d ad a9 3c a1 f8 cb bc
       -0.18881832 -0.260248 0.02071243 -0.024898829
0000e0 ef d6 c6 bb 64 76 f6 3c c4 8a b6 3b a3 16 1f 3b
       -0.0060681025 0.03008575 0.0055707414 0.0024274967
0000f0 6b 5f 0b bd 46 84 2a bb f1 ed 2d bd d1 12 57 be
       -0.034026545 -0.0026018783 -0.042463247 -0.21003272
000100 fe 30 22 be 54 87 eb bd 0c 26 f8 3c 3f 1a b5 be
       -0.15839002 -0.11500421 0.03029158 -0.35371587
000110 2a da 2f be d7 6a 3c 3d 03 56 a2 bd c6 2d ce bd
       -0.17173067 0.046000328 -0.07926562 -0.10067324
000120 cc 93 e6 bc c8 93 ee bd c6 7c fa bd 13 42 ad bd
       -0.028146647 -0.11649281 -0.1223083 -0.08459868
000130 79 19 03 be ce bb e1 bd d6 b9 ec 3c f6 ca 37 bd
       -0.12802686 -0.11022149 0.028897207 -0.044871293
000140 c2 6b c9 bc d8 bc 42 bf 72 ce dc be ad 54 be be
       -0.024587516 -0.760694 -0.43126255 -0.37173977
000150 6e 71 61 bf 53 f8 0f bf 78 9b 9f be dc a6 57 bf
       -0.88063705 -0.5623829 -0.311733 -0.8423898
000160 28 02 1e bf 9b 5c 00 bf 0d df 18 3d a5 c2 7a bc
       -0.6172204 -0.50141305 0.037322093 -0.015305196
000170 23 fb 13 bd 3c 9c d0 3b 9a 74 7b bb ac c1 66 3c
       -0.036128175 0.006366281 -0.003836906 0.014084261
000180 d7 46 1f bb de 2a 2d bd fc a7 03 bd ad 70 10 3d
       -0.0024303698 -0.04227721 -0.032142624 0.035263706
000190 e7 2a fd 3c 8c e8 65 bc 77 cb e1 3c 68 35 b9 bc
       0.030904246 -0.014032494 0.02756284 -0.022608474
0001a0 e1 e0 3c 3d c0 8b 09 bd 7f 4a 02 bd f0 02 ae 3b
       0.0461129 -0.03358054 -0.031809326 0.005310409
0001b0 ad b6 0c bd 4e 62 e7 bb 92 e4 8a bc b6 28 77 bc
       -0.0343539 -0.0070612794 -0.016954694 -0.01508539
0001c0 07 44 e9 bb f0 5d da 3b 79 a5 e1 3c 31 91 d1 3c
       -0.007118705 0.0066640303 0.027544724 0.025581928
0001d0 47 97 0e 3d 1f 02 4b be de 37 a0 3c d4 d0 90 3e
       0.034812238 -0.19825028 0.01955789 0.28284323
0001e0 6b 4b 09 bf d8 8a 35 be 31 41 46 3e 26 81 c8 be
       -0.53630704 -0.17728746 0.19360806 -0.39161032
0001f0 eb 44 3e be 55 44 00 3e a1 43 a4 bc d5 fb 4e bc
       -0.18580978 0.12526067 -0.02005178 -0.012633284
000200 c6 3a 19 bc 50 4d ec 3c 15 ce ff bc 03 39 86 3c
       -0.009352392 0.02884546 -0.031226197 0.016384607
000210 05 50 40 3c 91 ef 1b 3d 38 5e fc bb 16 2e 8e 3d
       0.011737828 0.038070265 -0.0077016614 0.06942384
000220 13 60 d5 3d 48 44 02 3e 50 80 69 bd 4a 0a 0f bd
       0.10418715 0.1272136 -0.057007134 -0.03492192
000230 c1 14 7b bd 61 91 0a bd e7 80 17 3d ce 94 5d bc
       -0.06129909 -0.03383005 0.036988165 -0.013524247
000240 17 c1 83 be 22 da 3d be 97 51 61 be fc aa 46 be
       -0.25733253 -0.18540242 -0.2200378 -0.19401163
000250 cf 36 80 be 69 64 41 be 9e 7e 11 be 39 48 4b be
       -0.25041816 -0.1888596 -0.14208457 -0.1985177
000260 6f 5b 63 be c4 c4 ad 3c 79 36 81 3d 11 94 75 bd
       -0.22202848 0.02121199 0.06309218 -0.05995566
000270 04 7e 00 3d e9 39 1e 3c ba f2 b0 bc 9a fd e0 3b
       0.031370178 0.009657362 -0.021600116 0.006866169
000280 cd 0b 21 3c cf e2 74 3b 1c d9 88 be c6 fa 18 bd
       0.009829474 0.0037366634 -0.2672814 -0.03734853
000290 1e a4 75 3e 43 cd b9 be 8a 22 93 be 6b c8 42 3e
       0.23988387 -0.36289415 -0.2873729 0.19021766
0002a0 71 47 7b be 03 e8 52 be c2 25 4b 3e e3 29 f8 be
       -0.24538971 -0.20596318 0.19838622 -0.48469457
0002b0 95 e7 89 be 7c b9 86 3d 63 2e c7 be 16 ae f0 be
       -0.26934496 0.06578347 -0.38902578 -0.47007817
0002c0 04 bc 9f 3b 9b f5 3a be bc f4 9f be 27 43 07 3d
       0.004874708 -0.18257754 -0.31241405 0.033023026
0002d0 0d f7 9b 3c 26 11 06 bd c4 82 ac 3b 14 e7 9c bc
       0.019038701 -0.032731198 0.005264612 -0.019153155
0002e0 24 12 15 bc 0b e5 16 3d d2 91 aa 3c 3a d8 a9 3c
       -0.009098563 0.036839526 0.020821486 0.020732988
0002f0 5e 49 03 3c ec c6 d4 bd 5c 43 ae 3d 0d 56 84 3e
       0.008013098 -0.10389504 0.085089415 0.25846902
000300 9d 48 fc be d2 41 2e be 24 06 67 3e df f7 a0 be
       -0.4927415 -0.17017296 0.22560936 -0.3143911
000310 c8 ba 18 be 58 8e 4d 3e 3f 1f b6 3c 9d 7a 36 3c
       -0.14915001 0.20073831 0.022231696 0.011137632
000320 af de d8 3c 4f 4d 6f bb 62 f9 fe bc de 3d df 3c
       0.026473371 -0.0036514585 -0.031124774 0.02725118
000330 c4 c4 47 3c 91 f9 fa bc 81 fb 02 3d c5 82 6a 3c
       0.012192909 -0.03063658 0.031978134 0.014313404
000340 01 7d 8d bb 10 03 97 bc f7 d3 e4 3b 38 4d 1a bc
       -0.00431788 -0.018434078 0.006983276 -0.009417824
000350 2b 0e 32 3c 5b db d7 3c c3 97 35 bd b2 32 19 bd
       0.010867636 0.026349714 -0.044334184 -0.037401862
000360 5e d0 d9 be e5 84 2e bd 54 f9 55 3e c4 51 6a bf
       -0.42541784 -0.042607207 0.20895892 -0.91531014
000370 24 aa 92 be f8 5f 5b 3e d3 58 27 bf 93 4a a1 be
       -0.28645432 0.21423328 -0.6536991 -0.31502208
000380 4a 55 13 3e 24 5c b9 bc dc bd 0e 3c 8e d3 7d 3c
       0.14388004 -0.022626944 0.008712258 0.015492333
000390 6b c7 bb 3c c2 11 21 3c c7 c4 a2 3c 7b 3d 0e bd
       0.022922238 0.009830894 0.019869221 -0.0347266
0003a0 b9 57 62 bc 16 85 50 bc e4 b3 6f 3e e3 50 8d bd
       -0.01381486 -0.012727043 0.23408467 -0.069001935
0003b0 52 22 62 bd 01 62 5f bd 2c 80 91 be 52 1b 95 bc
       -0.05520851 -0.054536823 -0.284181 -0.018201504
0003c0 a4 4a 46 be 33 b6 72 be f7 93 9a bd 2c 95 f7 bd
       -0.1936441 -0.23702316 -0.07547753 -0.12088999
0003d0 4d c7 9a bd f1 ed a4 3d 00 5c 3b bd 57 62 60 bd
       -0.07557545 0.08053196 -0.045742035 -0.054781284
0003e0 04 fb 0e 3e 7c e9 0b be f2 32 92 bd 5f a0 be 3b
       0.13962942 -0.13663286 -0.07138623 0.0058174576
0003f0 9f a7 12 3c 48 d7 29 3d 6c 8e 07 3d d4 15 09 bb
       0.008951097 0.041465074 0.03309481 -0.0020917552

features.6.bias f4 [128]
000000 c9 26 1d bd 33 c6 1e bd 26 dc 94 3c e3 aa 8a bc
       -0.038367067 -0.038763236 0.018171381 -0.016927188
000010 fe d9 80 3d 13 42 f3 bc 15 cb 39 bd 25 29 88 bd
       0.06291579 -0.029694593 -0.04535969 -0.06648473
000020 28 80 fa bd fd 25 d2 3c 12 ec 46 bd 60 a7 10 3d
       -0.12231475 0.02565288 -0.048564978 0.03531587
000030 15 05 7d bc 61 4d a7 be 49 7f d9 bd f1 ab 46 3d
       -0.015443106 -0.32676223 -0.10619981 0.04850382
000040 ab b6 96 3d 88 1a 85 bb 20 64 89 bd 4b c3 0e bd
       0.0735906 -0.0040620007 -0.067085505 -0.034854215
000050 8e 5c 0f bd 15 af cf 3c 5f 85 38 3d 60 9b 63 be
       -0.035000376 0.02535204 0.045049068 -0.2222724
000060 97 60 03 be a4 f6 98 bd 0b ae f3 3c 79 3a 1a be
       -0.12829815 -0.07468918 0.029746076 -0.15061368
000070 a4 ea 43 bd 70 60 52 3d 61 4e 11 bd a4 7d b8 3c
       -0.047831193 0.0513615 -0.03547514 0.022520848
000080 49 32 42 be f3 2f 8c 3d f5 1f e8 bc 8b 10 72 3a
       -0.18964495 0.06845083 -0.02833555 0.00092340325
000090 97 99 85 bd 59 a8 8d bd 0d 7e 2d bd d2 f8 ac 3d
       -0.065234356 -0.069168754 -0.04235654 0.08445896
0000a0 89 6a 87 3d cb ef f7 3b 56 18 c7 bd 41 41 5f bd
       0.06612117 0.0075664273 -0.097214386 -0.05450559
0000b0 16 b3 ff ba bd b0 28 bd 8f 55 a2 bb ff 12 fa 3c
       -0.0019508328 -0.041184176 -0.004954047 0.030526636
0000c0 d5 cb 1c 3c 8d ce 6f bd 55 dd aa bc fd f6 f4 bd
       0.009570082 -0.05854659 -0.020857492 -0.11961172
0000d0 03 a4 4f bc ee 92 65 3d 3f b4 c2 bd bd 39 e1 bc
       -0.012673381 0.056048326 -0.095070355 -0.027493352
0000e0 80 20 5a 3d c0 7f 71 3d 38 4e 3c 3d 47 92 01 be
       0.05325365 0.058959723 0.045973033 -0.12653457
0000f0 1b 5d 31 be 7f 81 fc bd 80 a7 ce bc 8c a9 26 3d
       -0.17320673 -0.12329387 -0.025226355 0.040689036
000100 1b e7 7b bd fd b8 ad bd 1d 3d 96 bc 9e 72 06 3c
       -0.061499696 -0.08482549 -0.018339688 0.008206038
000110 91 19 05 bd 9d fa c8 3c f0 c0 cb bb 83 de da bc
       -0.032495085 0.024533564 -0.0062180683 -0.02671743
000120 b4 1c 20 3c c3 af 81 bb 3e 39 58 ba ca a6 38 3c
       0.009772468 -0.00395772 -0.0008248276 0.011270234
000130 32 af a9 3c 99 75 fc bc c3 8c 25 3d 71 74 24 3e
       0.020713422 -0.030817794 0.040417444 0.16060044
000140 b7 8d 7a bd 88 b1 0b 3d 8c 48 5a 3d 15 07 0d 3d
       -0.061170306 0.034104854 0.053291842 0.034430582
000150 05 c2 10 3c 1e b4 60 bd 78 42 d8 bc cd 3d 1b be
       0.00883532 -0.054859273 -0.026398882 -0.15160294
000160 0a 0d 3a 3d 73 dd 80 3d 18 7a 98 3a 42 87 0c be
       0.04542259 0.06292238 0.0011633066 -0.13723472
000170 ac ed fc bc 39 5e ee 3c e6 ee 35 bc 8f 0a bd bc
       -0.03087505 0.029097663 -0.011104321 -0.023076324
000180 11 d6 da bd 60 3e 6a bd 05 28 6c bd fa 2f 2d 3d
       -0.10685361 -0.05718839 -0.057655353 0.042282082
000190 12 72 e6 bd a5 58 a0 3d 8e b6 91 bd 7a c1 2d bd
       -0.11252226 0.078294076 -0.07114898 -0.04242084
0001a0 67 66 18 be 1e f5 d6 bb bd bb a0 3d 5d b3 79 bd
       -0.14882813 -0.006559982 0.07848308 -0.06096207
0001b0 f5 07 35 3c 76 2a 50 bd 97 84 ea bd 20 4e 89 bd
       0.01104926 -0.050821744 -0.11451071 -0.06704354
0001c0 79 64 24 3d 3d b1 e2 3b 89 3e 73 bc a4 ad 11 bd
       0.04013488 0.006918101 -0.0148464525 -0.035565987
0001d0 84 dc e4 3c b1 4a 1b be 33 cc 77 3d b2 4c 71 bd
       0.027937181 -0.15165211 0.060497474 -0.058911033
0001e0 3d 90 6e bd df c5 87 bd 3c a4 b4 bd 23 7f 7c 3c
       -0.058243025 -0.06629538 -0.08820388 0.015411171
0001f0 f3 50 19 bd e9 19 8c bd 3d 52 8b 3c 89 c1 3c bd
       -0.037430715 -0.068408795 0.017006988 -0.046083007

regressor.1.weight f4 [256, 128]
000000 97 8b 14 be c4 5d 6e 3d c5 16 8d bb 73 55 69 bd
       -0.14506374 0.05819489 -0.004305693 -0.056966256
000010 a3 07 d4 3d 97 9f a8 3c 62 4a 41 bd b0 36 23 bb
       0.10353019 0.02058391 -0.047190078 -0.0024904422
000020 46 9a 40 3d 2d ba d1 3c 0d 16 bd bc a4 6c 4a be
       0.047022127 0.02560147 -0.023081804 -0.19768006
000030 a0 ec 07 bd 6d cf 88 bd 62 59 a5 3d 3f 0f bc 3c
       -0.033184648 -0.06680188 0.08073689 0.022956489
000040 d4 36 91 3b 93 12 21 bd fb 67 5e be 80 fa c1 bd
       0.004431585 -0.039324354 -0.21719353 -0.09471607
000050 71 77 ea bb 88 60 f3 3d 63 1b d4 3d f1 c2 8c be
       -0.007155352 0.11883646 0.10356786 -0.27492478
000060 41 d6 69 be fa 88 12 3d 6f b1 c4 bb 4d b8 de 3d
       -0.22835638 0.035775162 -0.006002597 0.10874996
000070 c7 3e 9a bd f8 1a ff bd 4d 89 72 bd f4 93 2b be
       -0.07531505 -0.12456316 -0.05921297 -0.16755658
000080 b5 ca b6 3c 41 a1 40 3c 89 1f 10 be 20 c0 03 3c
       0.022313455 0.011757196 -0.1407453 0.008041412
000090 d9 ac 7c bb 94 9a bc 3d 5b 3c 1b be 68 59 e7 bb
       -0.0038555174 0.09209171 -0.15159743 -0.0070602186
0000a0 7d a6 15 3d 41 ef 12 be d6 45 41 bd 89 e9 6b bd
       0.03653573 -0.1434908 -0.04718574 -0.057595763
0000b0 1e a6 d9 3b 3c 36 d5 3d 2b d8 79 be d0 84 46 3d
       0.006642117 0.10410735 -0.24398868 0.048466504
0000c0 30 41 21 3d bd 90 91 3d 4e d7 a4 bd ef 3f 3a bd
       0.03936881 0.07107685 -0.080488786 -0.045471128
0000d0 fe 3d 5b 3d 67 c9 c0 3b f2 cd d8 bd 29 3c 80 be
       0.053525917 0.005883384 -0.10586156 -0.250459
0000e0 3f c7 41 bd 77 bd e7 3b 4f db 14 39 8f 3c 9d bd
       -0.047309157 0.0070721465 0.00014196079 -0.07677566
0000f0 ea e4 4d 3e 50 7d 7d bd 30 5f 05 3d 79 12 19 3d
       0.20106855 -0.061887085 0.03256148 0.037371133
000100 a0 b3 b2 3d 3a 18 34 3d 67 4d e6 bd 20 84 ac 3d
       0.08725667 0.043968417 -0.11245232 0.08423638
000110 f9 f5 02 3c bf a3 ba 3b 67 8b 35 be 04 54 46 3d
       0.007993215 0.0056957896 -0.17728959 0.048419967
000120 91 f0 df 3c 86 90 c7 bc 5d 6e 82 bd 01 da 18 be
       0.02733639 -0.024360906 -0.063687064 -0.14926912
000130 3e 20 f7 bd a4 1b 09 be 16 2e 4a 3c 1a 61 3a bd
       -0.120666966 -0.1338945 0.012340089 -0.04550276
000140 46 00 8c 3d 6d c3 12 3d 55 01 5f bc 62 42 0a bd
       0.0683599 0.035830904 -0.013611157 -0.033754714
000150 1f 87 a5 bd 4b 7d b0 3d 74 d0 2c bc b1 ac 9e bd
       -0.08082413 0.08617648 -0.010547746 -0.07747782
000160 1f 56 0f be 75 a0 39 be dd ba 11 bd 5b 62 35 3e
       -0.13997696 -0.18127616 -0.035578597 0.17713301
000170 b1 c0 36 3b 23 ab 90 3b 06 67 b2 bc 6c c6 c8 bd
       0.002788585 0.0044149323 -0.021777641 -0.09803471
000180 e1 9a aa bd e2 8b b8 3b 24 a4 0c be d6 fb 86 3d
       -0.08330322 0.0056319097 -0.1373449 0.06591003
000190 e5 20 46 bb 29 fe 4c be 60 f2 1e 3d 3b 19 d3 3d
       -0.003023201 -0.2001883 0.038805366 0.10307547
0001a0 22 a1 1d 3d e8 18 a9 3c dc 14 84 bc c6 e8 24 be
       0.038483746 0.020641759 -0.016123228 -0.16104421
0001b0 d0 99 6a 3d 50 00 b6 bd 25 e6 87 bd 36 71 ed 3d
       0.057275593 -0.08886778 -0.066356935 0.11593859
0001c0 be dd 2a 3d c8 f3 2e 3d d1 49 ee ba f8 db 11 be
       0.041715376 0.042712957 -0.0018179958 -0.14244068
0001d0 ee f6 2d bd f0 b1 6b 3d fb b5 7f 3c 56 2d b6 3d
       -0.04247182 0.05754274 0.015607352 0.08895366
0001e0 d4 1e c8 bd 28 69 00 bd 29 ba bc 3d 21 61 10 3b
       -0.09771505 -0.031350285 0.09215195 0.002203055
0001f0 a5 f6 2c 3c 34 4f c3 3d 50 84 5a 3d b8 a8 07 be
       0.0105568515 0.09536591 0.05334884 -0.13247955
000200 38 fb 0e 3f 04 08 d5 3d 62 c6 28 3d eb b0 c3 3c
       0.5585208 0.104019195 0.041204818 0.023888072
000210 82 f6 99 3d 79 7f a1 3d 96 73 1f 3d a1 0f d3 3c
       0.07517721 0.078856416 0.03892859 0.025764288
000220 14 8f c0 3c 07 f0 eb 3c 03 ac 88 3d d5 71 ff bd
       0.023505725 0.028800977 0.06673434 -0.124728836
000230 49 99 95 3d 00 ad 35 bd 04 46 16 3d a8 0b b6 3d
       0.073046274 -0.04435444 0.036687866 0.08888942
000240 e0 10 84 3d b3 25 ba 3d 64 2c fb 3d eb 5b 03 bd
       0.06448531 0.09089222 0.12264326 -0.03207008
000250 d5 10 12 3d cf 94 66 bd 42 d0 b1 3d 93 30 d0 3e
       0.035660584 -0.05629426 0.086823 0.4066206
000260 e8 4d 04 3d 93 d9 ba 3d f9 24 c3 3d 73 ac 89 bd
       0.03230086 0.0912353 0.09528536 -0.06722345
000270 b3 51 a0 bd 2f 9f 5c bd 95 2e 7c 3d d7 4f 65 bd
       -0.07828083 -0.053862747 0.06156786 -0.055984344
000280 d3 ff d2 3c 17 02 b4 3d af 4e e1 bd 79 1c eb bc
       0.025756752 0.08789461 -0.11001336 -0.0287001
000290 60 6e a5 bd d8 63 b0 bd 54 33 69 bd 16 70 d7 3d
       -0.08077693 -0.08612794 -0.056933716 0.105194256
0002a0 e4 09 b2 3c bd d7 10 3e ea ec eb 3c 7e 2a ac bc
       0.021733232 0.14144798 0.028799493 -0.021016356
0002b0 e3 31 95 3d e3 3a 05 3e 20 ee 21 be 75 ae 78 3d
       0.07284906 0.13010745 -0.15813494 0.06071325
0002c0 3b 43 75 bd 46 be 16 3d dd 5c ba 3c 5a 67 5e bb
       -0.05987857 0.036802553 0.022749359 -0.0033936114
0002d0 81 2b b8 bd f0 47 63 bc 2e fb b6 bc e6 46 65 3c
       -0.08992673 -0.013872132 -0.022336569 0.013993954
0002e0 d9 da ef bc e0 45 af 3d 3c 46 ac 3d e3 7f ac 3d
       -0.02927916 0.085582495 0.08411834 0.0842283
0002f0 00 cb 09 3f 6c e3 8e 3d a2 5f 2d 3d f1 85 6c 3d
       0.5382538 0.06976971 0.04232753 0.057744924
000300 a5 c7 99 bd 18 a4 b3 bd 7c fe 57 3d 18 b2 8d bd
       -0.07508782 -0.08771533 0.05273293 -0.06918734
000310 81 27 59 3d a7 1b 3d 3d a9 1b e0 bd 76 b7 36 3d
       0.05301619 0.04616895 -0.10942776 0.044608556
000320 9a 30 2c 3b 74 bc 21 3d 46 e3 ae 3d ae d6 65 bd
       0.0026274086 0.039486364 0.08539443 -0.056112938
000330 57 42 17 3d df 81 27 bd 4b 4b 77 3c 81 cd 9a 3d
       0.0369285 -0.04089534 0.015093635 0.07558728
000340 b2 36 67 bd 12 4f 92 3d 7a de 1a 3d ad 4e 1a bd
       -0.056448646 0.07143988 0.037809826 -0.037672687
000350 0d 86 c1 3c d0 51 db 3d f7 25 87 3b 0f 2b 72 3d
       0.02362349 0.10708964 0.004124399 0.059123095
000360 90 10 a5 3c ce 02 fe bd ba ad 7b bc b4 3a 06 3e
       0.0201495 -0.12402879 -0.015361244 0.13108331
000370 33 31 a7 bd 07 c7 71 3d f9 b8 c7 3d ac 45 18 bd
       -0.08163681 0.059027698 0.097520776 -0.03717582
000380 b3 e5 6c bc ac 5d e3 bc 40 6b 08 3f 72 85 18 b9
       -0.014459061 -0.027754627 0.5328865 -0.00014545562
000390 c1 c9 6b 3c 80 14 ce 3d eb 25 32 3c 61 27 ca 3c
       0.014391364 0.10062504 0.010873298 0.02467698
0003a0 19 71 9f bd 34 04 64 3d 41 dc 51 3d af 7e da 3d
       -0.077852435 0.05566807 0.05123544 0.10668694
0003b0 42 77 04 bd a1 9c d5 bc 4b ec 80 3e c7 3f 53 bd
       -0.032340296 -0.026075663 0.25180277 -0.051574495
0003c0 9a 20 c2 3d 24 0a 05 bd da 4b be 3d 00 b4 b3 3b
       0.094788745 -0.032480374 0.09291811 0.005484104
0003d0 1d 8c bd 3d 90 14 4f bc 09 3b 43 3d 6c 1e e8 3c
       0.0925524 -0.01263918 0.047663722 0.028334819
0003e0 30 60 7f 3d bc 4e bd 3d ac b1 fe bd 77 4d 30 3c
       0.06234759 0.09243533 -0.12436232 0.010760657
0003f0 ba bf 04 bd 5d fd a4 3b e5 c1 0c bd 30 88 89 bc
       -0.032409407 0.005035086 -0.0343646 -0.016788572

regressor.1.bias f4 [256]
000000 cd e3 c4 3d a5 62 0f 3e f5 b8 86 bd 81 05 84 bd
       0.09613762 0.14002474 -0.065782465 -0.06446362
000010 21 79 3e bd e2 d0 ce 3d 85 0e 7b 3c d6 78 97 3c
       -0.046502236 0.10098435 0.015323286 0.018490236
000020 4b a5 2a bd 3a 3c c6 bd 3a 00 df 3d 77 5c bf bd
       -0.041661542 -0.09679456 0.10888715 -0.09343808
000030 d3 d2 39 bc b8 6c 08 3e d1 55 e6 bd e8 4b 94 bd
       -0.011341768 0.13322723 -0.11246837 -0.072410405
000040 50 a9 a5 bd 57 cf 4f 3c b6 97 a8 3d 81 4d 84 3b
       -0.080889344 0.012683711 0.082320616 0.0040375595
000050 3b 7e a1 bd 83 61 59 bd 41 2c 14 3e 82 e3 da 3d
       -0.07885405 -0.05307151 0.14470007 0.10687925
000060 f9 93 88 3c 21 3b c2 3d 83 16 57 bd 26 29 89 bd
       0.016672121 0.09483934 -0.052511703 -0.066973016
000070 b0 ee 98 3c 92 42 54 bd 51 2d f0 3d 77 6b b1 bd
       0.018668503 -0.0518213 0.117273934 -0.086630754
000080 8f 3a 86 bd cf a4 3f 3d a7 d6 e8 bd 7b b7 30 3c
       -0.06554138 0.046788033 -0.11369067 0.010785933
000090 aa 21 32 3c cd 19 bd bd 2e 3f a9 3d e7 5d 22 3e
       0.010872284 -0.09233437 0.08264004 0.15856133
0000a0 42 ae 70 bd 69 60 27 3d ff fd fa 3c 89 32 d9 3d
       -0.058759935 0.04086343 0.030638693 0.10605342
0000b0 5a 09 45 bd 42 50 29 be 9f 98 02 3e 0a 08 fb bd
       -0.04810462 -0.16534522 0.12753533 -0.12257393
0000c0 2d 63 56 bc fb b9 83 3c 18 5a e3 3d 90 44 dc 3d
       -0.013085169 0.016079893 0.111011684 0.10755265
0000d0 cc 70 ab 3b 20 f4 0d 3d ad 48 f3 3c 60 57 aa 3d
       0.0052319523 0.034656644 0.02969774 0.08317447
0000e0 75 77 f8 3b 2d d6 9f 3d f4 6b 8e bd c1 0f 09 bd
       0.0075825998 0.07804523 -0.06954184 -0.03346229
0000f0 6c 6d 0d bc c5 6a 40 3d 61 28 fd bb 3a c4 16 3e
       -0.008632045 0.046976823 -0.007725761 0.14723292
000100 a9 13 c8 3d 30 9a af bd 0e e8 1c 3e 4b 56 18 3e
       0.09769375 -0.08574331 0.15322897 0.14876668
000110 ec 01 bc bd 46 fb c4 3c f2 28 fe bc 12 56 b1 3c
       -0.09180054 0.024045598 -0.031025384 0.021647487
000120 c2 40 45 3e 36 43 2f 3e 9e bd 1f bc 16 87 ab bd
       0.19262984 0.17115483 -0.009749798 -0.08375375
000130 3c 90 a9 3c f2 d3 a5 3d 60 87 8c bd 48 5d 00 3e
       0.02069866 0.08097066 -0.06861758 0.12535584
000140 c0 ee 44 bd 70 c3 66 3a a3 f4 1f 3d 81 4a 10 3e
       -0.048079252 0.0008802926 0.039051663 0.14090921
000150 72 c3 e2 bd 84 bb 31 3d 8a 75 36 bd cd 5f 5d bd
       -0.110724345 0.04339172 -0.044545688 -0.05404644
000160 26 8d 0d 3c fe 8e 94 bd 63 05 f1 bd 5a 65 6f bd
       0.008639609 -0.07253836 -0.117686056 -0.058446266
000170 f9 70 fe 3d 53 55 f0 bc df bc b0 3d f2 0d 2c bd
       0.124238916 -0.02933756 0.08629774 -0.042005487
000180 13 82 ca bd 37 c9 25 bd 1d 51 8a bd 14 4e a5 3d
       -0.09888091 -0.040475097 -0.067537524 0.08071533
000190 1f b4 86 bc 1b 5c 1c bd 0e ec 55 3d 2e 1f 97 3c
       -0.01644331 -0.038173776 0.052227072 0.018447485
0001a0 33 b9 ee bc 26 3b f6 bd 50 fa a8 3d 06 d2 e0 3c
       -0.029141044 -0.120230004 0.08250868 0.027443897
0001b0 ed 56 16 be df e1 a0 3c 79 fa f8 bd 84 eb 04 3e
       -0.14681597 0.019638954 -0.12157149 0.12980467
0001c0 92 ba 92 bd 15 ae f2 bc d8 d3 af bd 71 68 e6 bd
       -0.07164492 -0.029624024 -0.08585328 -0.11250389
0001d0 02 77 26 be 17 78 b4 3d 06 59 06 3e 68 95 15 bd
       -0.16256335 0.08811968 0.13119897 -0.036519438
0001e0 28 6b 85 bd 88 84 25 3e 2f e2 41 3d bd cc 39 bb
       -0.06514579 0.16163838 0.047334846 -0.0028350793
0001f0 e4 fe 11 be c6 21 7a bd df 62 07 bd f3 64 81 bd
       -0.1425739 -0.061067365 -0.033053275 -0.06318083
000200 00 bb 1d 3b 55 7e 7c bd 60 b2 cf 3d 32 e7 d4 3d
       0.002406776 -0.061643917 0.10141444 0.103956595
000210 72 92 4d 3d 20 4e 0f 3d a0 dc 98 3a e1 22 bb bd
       0.05018849 0.034986615 0.0011662431 -0.09137512
000220 b4 a3 0e 3e e3 5e 71 bd 74 80 b6 3d e5 b2 49 bd
       0.13929635 -0.05892838 0.08911219 -0.049242873
000230 7c 32 11 3e 21 5c 5b bc 11 46 cb bd 39 5a d2 3b
       0.14179415 -0.013388664 -0.099254735 0.006419447
000240 b7 5d 95 bd fa db da 3c fb 50 21 3d b7 a6 f6 3c
       -0.07293265 0.026716221 0.03938387 0.030108793
000250 5f 8c cb 3d 95 b5 e8 bd 6c 04 b8 3d 1c 0c ac 3c
       0.09938883 -0.11362759 0.089852184 0.021001868
000260 f5 7d df bd 1e 33 02 3e 82 e7 ef bd 05 e0 14 3e
       -0.10912696 0.12714812 -0.117140785 0.14538582
000270 21 4b 2a 3e 13 6d dd bd 62 fa db 3d 3d a6 e5 3d
       0.16630222 -0.1081182 0.10741116 0.11213348
000280 ea d9 1c 3c d5 ed db bd 45 33 8a 3d 78 16 a0 3b
       0.009573439 -0.10738722 0.0674806 0.004885491
000290 5e a9 23 bd cc 01 5c bd cd 8b c6 3d 3e 6a df 3c
       -0.039956443 -0.05371265 0.09694634 0.02727234
0002a0 8e fc 06 3d 71 1b d3 bc a9 da f8 3c 2c 46 a6 bd
       0.0329557 -0.025769921 0.030377703 -0.08118853
0002b0 bd 54 83 bc df 70 80 bd da 1f 97 3d 01 f1 dd bd
       -0.016031617 -0.062715285 0.07379122 -0.108369835
0002c0 3b 8e 17 be 13 ad 04 bd cf 5f c2 3d cb 5b 91 3c
       -0.1480035 -0.03239162 0.0949093 0.017743966
0002d0 d0 c4 a3 3c 98 4b 0d bd 61 7c f2 3b e5 6a ba 3c
       0.019991308 -0.03449592 0.007400081 0.02275605
0002e0 4c 00 e9 3d 15 4a 86 bd 06 d0 c8 bc 93 f9 0c bd
       0.1137701 -0.06557099 -0.024513256 -0.0344177
0002f0 1f 66 19 3e cc 75 87 bd 8c b4 7a 3d 96 74 b8 bd
       0.14980362 -0.06614265 0.06120734 -0.09006612
000300 1b 3e 21 bd 96 98 11 3e 21 84 a0 bd 76 e1 aa bd
       -0.03936587 0.14218363 -0.078377016 -0.083437845
000310 4f 95 a8 3c 2f 2a c4 3d ec 73 67 3d 45 3c 86 bd
       0.020579008 0.095783584 0.056507036 -0.06554464
000320 fe 2d 7f 3a 5d cc ba 3d 06 db bf bb ed 78 e7 bd
       0.00097343314 0.091210105 -0.005854967 -0.11302362
000330 5d b0 0a 3d f5 ac 9f 3c af 74 8c bd 97 73 ff bd
       0.0338596 0.019491652 -0.06858193 -0.12473219
000340 27 5d f4 3d 44 36 9b 3d 1b c7 e8 3c c2 1c a6 bd
       0.1193183 0.0757871 0.028415253 -0.08110954
000350 09 c3 e1 bc 44 15 7f 3c ab 64 9c 3c 5c 95 0a bd
       -0.02755882 0.015569035 0.019090971 -0.033833846
000360 44 df dc bd 60 4f 6a bc ac 3a 80 3c a0 e3 20 3d
       -0.10784772 -0.014301151 0.015652977 0.03927958
000370 b2 09 92 3d d8 24 ac bc db 03 30 3c 4a 10 18 bd
       0.071307555 -0.021013662 0.010743107 -0.03712491
000380 b2 d5 7e bd 7f b2 1a 3d 3c e3 65 3d f4 6c ea 3d
       -0.062215514 0.037767883 0.05612491 0.114465624
000390 5d a0 b6 bd 91 06 bf 3c ef 5e 86 3d 8e 7e b2 bb
       -0.089173056 0.02331856 0.06561076 -0.0054472154
0003a0 fe 67 db bd 11 70 cd bd 5a e7 de 3d b3 0e dc bb
       -0.10713194 -0.100311406 0.108839706 -0.0067156195
0003b0 a9 61 92 3c 3e 04 87 3c 95 11 36 3d b3 47 3a 3d
       0.017868834 0.016481515 0.04445036 0.045478534
0003c0 3b 73 a5 bd 1b d6 0f 3e ec e6 b8 3d 26 bb c7 bd
       -0.08078619 0.14046519 0.0902842 -0.097524926
0003d0 4b aa 00 bd 13 a9 08 3e b9 21 e6 3d 3a 72 16 3e
       -0.031412404 0.13345747 0.11236901 0.14692011
0003e0 4a 85 b3 3d 4d c1 8e bc 94 11 96 bd d7 1b be 3d
       0.08765657 -0.017426157 -0.073275715 0.09282654
0003f0 77 40 9d bd 74 e1 7c bd 05 e6 08 3e e5 af 41 bd
       -0.07678311 -0.061738446 0.13368995 -0.047286887

regressor.3.weight f4 [4, 256]
000000 0f d2 fe bd b3 67 c6 bd 44 fa 49 bd 6c 7b 82 bc
       -0.12442409 -0.09687748 -0.049310938 -0.015927993
000010 3e 1e 66 bc 79 a7 81 bd 5e 76 e6 3b ab b0 4e 3d
       -0.014045296 -0.06330771 0.0070331534 0.050461452
000020 fd 82 fe 3c 3d 1e 66 bb 36 44 97 bd 46 b0 ad bc
       0.03106832 -0.0035113238 -0.07386057 -0.021202218
000030 49 6f 7b 3c 6d 17 d0 bd 26 f2 e6 bc a9 c3 af bc
       0.015346357 -0.10160718 -0.028191637 -0.021455603
000040 16 0e 0f bd 86 3a 0a 3d 99 fd 6d bd b1 e3 37 3d
       -0.034925543 0.03374722 -0.058103178 0.044894878
000050 78 b9 cc bc ed a6 f1 3c e6 cb c1 bd 51 e9 b0 bd
       -0.024990782 0.029498542 -0.09462719 -0.086382516
000060 ef ff d7 3c 95 08 01 3d da 24 4b bc 24 46 af bc
       0.026367156 0.031502325 -0.012398923 -0.02139575
000070 cc cf 04 3d 1b 23 00 3d e9 6a 54 3e 18 90 86 bc
       0.032424733 0.03128348 0.20743908 -0.016426131
000080 0d 64 e2 bd 8e 98 79 bc 5d ad 97 3c 40 32 ea 3c
       -0.110542394 -0.015234126 0.018515283 0.028588414
000090 0f 55 2b bc 4c f6 bd 3c 43 6c 65 bd c6 62 4b bd
       -0.010457291 0.023188733 -0.05601145 -0.049654745
0000a0 8e f8 23 3d 11 ea eb bc e2 ca 35 be 25 5b ff bd
       0.040031962 -0.028798135 -0.17753175 -0.12468556
0000b0 b0 4d a5 3d a1 56 9d 3e e8 81 b2 bd a0 b3 45 3d
       0.08071458 0.30730155 -0.08716184 0.048267007
0000c0 33 ce 4b 3d 89 fc 5f bd 77 ca 02 bd 0d 4b c6 bd
       0.049757194 -0.054684196 -0.031931367 -0.096822836
0000d0 bf 6b e4 3b f2 12 08 be 7a 00 c5 bc 44 fc be bd
       0.006970852 -0.13288477 -0.024048079 -0.093254596
0000e0 d8 bd 80 bc 9e 73 a7 bd 28 a4 0a 3c 0c 98 28 3d
       -0.015715525 -0.08176349 0.008461989 0.04116063
0000f0 ee 82 fa 3c 0a 9a f0 bb 33 be 11 3d 94 f0 a4 3d
       0.03058001 -0.0073425816 0.03558178 0.08053699
000100 22 14 b1 bd 80 d8 09 bb 70 2a 65 bd 29 9f 87 bd
       -0.08646418 -0.0021033585 -0.055948675 -0.06622154
000110 1a df 4e bd 7a 86 84 3c 75 37 0c bc 41 34 a6 bc
       -0.050505735 0.016177405 -0.008558144 -0.020288588
000120 6a 16 9e bb 51 fa 98 bd 65 75 20 3d 88 6d 5d bc
       -0.0048244493 -0.07469619 0.039174456 -0.013514884
000130 2d 36 ce bd 9f 0a 15 3e 8e 8d f6 bc f0 62 aa bc
       -0.10068927 0.14554833 -0.030096795 -0.02079913
000140 95 05 65 be 67 fc 37 3d da 1f a6 3c 97 66 7b bd
       -0.2236541 0.044918444 0.02027886 -0.061377134
000150 db b8 2a 3d 01 f8 ec bd ea 2c 05 3d 36 e8 9a 3d
       0.0416802 -0.115707405 0.032513537 0.07563822
000160 c6 09 0b 3d b9 83 90 bc 46 10 92 3d b0 2b 69 bd
       0.033944868 -0.017640935 0.0713201 -0.05692643
000170 a0 1e 73 bd e1 7f 24 bd 01 ec 14 be 2c 6c ee bc
       -0.05935538 -0.040161017 -0.14543153 -0.029104315
000180 7d e6 87 3c 1a ee 55 3c 7e a3 1b bd a1 db 03 be
       0.016589398 0.013057256 -0.037997715 -0.1287675
000190 30 9c c1 3c 77 b0 32 3d 39 ff 65 be 6a 2e 0c 3b
       0.023634046 0.04362532 -0.22460641 0.002138997
0001a0 35 15 27 bd ad 59 92 3a 50 c2 b2 bd 63 6c 06 be
       -0.04079171 0.0011165641 -0.087284684 -0.13127284
0001b0 0d ee 2d bc 55 10 f7 bc 04 10 a7 3b c3 1f 70 be
       -0.010615838 -0.030159155 0.0050983448 -0.23449616
0001c0 72 b2 07 3e 9f 8c d1 3c 78 ec fe 3c f0 21 84 bc
       0.13251665 0.025579749 0.031118616 -0.016129464
0001d0 fe aa 0a 3e 2b 01 9e bd 9f 49 d3 bc 8f 9d 94 bd
       0.13541791 -0.077150665 -0.025791941 -0.072566144
0001e0 76 02 2b 3c 3c a8 e3 3d 5f c1 03 be 52 f1 06 be
       0.010437598 0.111160725 -0.12866734 -0.13177994
0001f0 1d 8c a0 3e d8 28 2d bd 46 3b 5b 3d bf 27 5c 3c
       0.31356898 -0.04227528 0.053523324 0.013437211
000200 a2 b5 be 3c 9a 2a 1a 3d fa 54 f7 3b e5 72 3f bd
       0.023279969 0.037638284 0.007547972 -0.04674043
000210 77 25 99 bc fd 26 28 ba 8f 98 97 bd 82 86 30 3d
       -0.018694622 -0.0006414501 -0.07402145 0.043097027
000220 e6 30 da bd 9f 46 84 3c db ca 8e bc 11 92 3a 3d
       -0.10653858 0.016146956 -0.017430713 0.045549456
000230 61 06 40 bb 66 c0 e3 3b 83 b5 23 3d b2 66 a3 bd
       -0.0029300677 0.006950426 0.039968025 -0.07978572
000240 22 29 cf bc 98 20 f2 3b 65 34 e8 3c 6a 81 a0 bd
       -0.025288168 0.0073891394 0.028345296 -0.07837184
000250 cb b0 21 be a5 69 94 bc 8e e9 9d bd 69 f1 69 bc
       -0.15790097 -0.018116781 -0.07710563 -0.014278748
000260 00 c9 19 3e da cb b0 bd 09 10 1f 3a 0d 5d 7e bd
       0.15018082 -0.086326316 0.0006067758 -0.06210046
000270 ca 4b f7 bc dd 60 0f 3b 3f 51 44 bd 81 cf ab 3d
       -0.030187506 0.0021877803 -0.047929045 0.083891876
000280 22 24 c2 3c b7 b0 c3 3c d6 c5 b6 bd 12 0f 3b 3d
       0.02369887 0.023887975 -0.08924453 0.04566867
000290 d7 d6 21 bc 4a 4c ba 3c 94 05 c1 bd 44 6b 5d 3d
       -0.009877882 0.022741456 -0.09424892 0.054057375
0002a0 ed 24 2f 3d 19 e5 f7 3a 64 71 0d 3d 68 c2 b3 bc
       0.042759825 0.0018912881 0.034531966 -0.021943286
0002b0 51 3c 91 bd 06 02 3c be 02 74 b9 bc 2e 70 db 3c
       -0.070915826 -0.18360147 -0.022638325 0.02678689
0002c0 fa 38 0d bd 6d fc c2 bc dd 80 b7 bd e1 51 d2 bd
       -0.034478165 -0.023802007 -0.089601256 -0.102695234
0002d0 4b d5 53 bd 30 c7 95 bc 7a 78 8a bd 41 1d 10 be
       -0.051717084 -0.018283457 -0.0676126 -0.1407366
0002e0 d8 c6 b0 bd d6 0a c2 bb 26 92 3e 3c 35 34 f3 3b
       -0.086316764 -0.005921702 0.011631524 0.007421995
0002f0 3e 74 46 bd cb a4 35 bd b1 80 91 bd 53 aa 0c bd
       -0.0484507 -0.044346612 -0.07104624 -0.03434212
000300 c4 2a cc 3c 7c 5c 0f 3e 70 db 70 bc a3 83 6c 3c
       0.024922736 0.14000124 -0.0147007555 0.0144356815
000310 d5 1c 45 3d 02 9a 29 be 80 76 f7 bd 78 35 22 3d
       0.0481232 -0.16562656 -0.12083149 0.039601773
000320 d8 14 e8 3c 4a a3 7c bc 4d 92 b2 bd 2c 87 05 bd
       0.028330252 -0.0154197905 -0.08719311 -0.032599613
000330 dc 47 25 3d db b9 fb ba ff e7 84 bb e5 5a af 3b
       0.040351734 -0.001920517 -0.0040559764 0.0053514116
000340 c2 19 a1 bd c2 d3 21 bd c1 b2 96 3c f2 5f 8c 3d
       -0.07866241 -0.03950859 0.018395783 0.068542376
000350 e1 33 3c bd 5d 27 90 bd f1 c9 c1 3c 38 f5 fd bc
       -0.045947913 -0.07038758 0.023655863 -0.031000718
000360 84 60 5f bd d6 23 52 be 41 d3 92 bd 73 f6 89 bc
       -0.054535404 -0.20521483 -0.071692 -0.016841149
000370 c8 8c 6b bd 94 05 91 3c 02 ee c6 3a 8e 4c 06 3d
       -0.057507306 0.017702855 0.0015177133 0.032787852
000380 79 12 b1 3c 0f 21 b5 3c 27 47 99 bd d5 08 68 bd
       0.021615254 0.02211049 -0.07484274 -0.056649048
000390 48 d4 62 3c c8 7f 3d be 6e 7d 11 3d 00 c4 bd 3c
       0.013844557 -0.18505776 0.03552001 0.02316475
0003a0 78 36 ed 3c ff af 52 3b 3a 9d 49 bd 21 4f 57 3e
       0.028956637 0.003214836 -0.04922221 0.21026279
0003b0 5f 84 40 be 69 2d b7 bc df d8 d1 bd 7a 8d 4a be
       -0.18800496 -0.02236052 -0.10246443 -0.19780532
0003c0 31 aa 4b bc de 0e 9f bd 6b 83 43 bd c1 1a ad bc
       -0.0124307135 -0.077665076 -0.04773275 -0.021130921
0003d0 4a 58 af 3b 6a d7 f1 bd 70 47 d7 bd ff b3 ac bd
       0.005351101 -0.11808665 -0.105116725 -0.08432769
0003e0 0f 34 ab bd 2b 91 93 bc 54 23 11 3d 22 c1 af bc
       -0.08359539 -0.018013557 0.035434082 -0.021454398
0003f0 be b0 00 3c 85 0b 53 bd 1b cb 92 be 21 89 0a 3d
       0.007854639 -0.051524658 -0.28670582 0.033822183

regressor.3.bias f4 [4]
000000 0a 3b b1 bc 18 0b 63 bd b8 d7 83 3d 31 62 93 3c
       -0.021634597 -0.0554305 0.064376295 0.017991157
